…
":"https://localhost:8080/"},"id":"Zw4w03h_8elq","executionInfo":{"status":"ok","timestamp":1717126772556,"user_tz":-420,"elapsed":24,"user":{"displayName":"KERJA RODI","userId":"18135752978161195735"}},"outputId":"f1fd9ca5-051f-47ff-ca66-58650811f840"},"execution_count":11,"outputs":[{"output_type":"stream","name":"stdout","text":["Model: \"sequential\"\n","_________________________________________________________________\n"," Layer (type)                Output Shape              Param #   \n","=================================================================\n"," conv2d (Conv2D)             (None, 222, 222, 32)      896       \n","                                                                 \n"," batch_normalization (Batch  (None, 222, 222, 32)      128       \n"," Normalization)                                                  \n","                                                                 \n"," conv2d_1 (Conv2D)           (None, 220, 220, 32)      9248      \n","                                                                 \n"," batch_normalization_1 (Bat  (None, 220, 220, 32)      128       \n"," chNormalization)                                                \n","                                                                 \n"," max_pooling2d (MaxPooling2  (None, 110, 110, 32)      0         \n"," D)                                                              \n","                                                                 \n"," dropout (Dropout)           (None, 110, 110, 32)      0         \n","                                                                 \n"," conv2d_2 (Conv2D)           (None, 108, 108, 64)      18496     \n","                                                                 \n"," batch_normalization_2 (Bat  (None, 108, 108, 64)      256       \n"," chNormalization)                                                \n","                                                                 \n"," conv2d_3 (Conv2D)           (None, 106, 106, 64)      36928     \n","                                                                 \n"," batch_normalization_3 (Bat  (None, 106, 106, 64)      256       \n"," chNormalization)                                                \n","                                                                 \n"," max_pooling2d_1 (MaxPoolin  (None, 53, 53, 64)        0         \n"," g2D)                                                            \n","                                                                 \n"," dropout_1 (Dropout)         (None, 53, 53, 64)        0         \n","                                                                 \n"," conv2d_4 (Conv2D)           (None, 51, 51, 128)       73856     \n","                                                                 \n"," batch_normalization_4 (Bat  (None, 51, 51, 128)       512       \n"," chNormalization)                                                \n","                                                                 \n"," conv2d_5 (Conv2D)           (None, 49, 49, 128)       147584    \n","                                                                 \n"," batch_normalization_5 (Bat  (None, 49, 49, 128)       512       \n"," chNormalization)                                                \n","                                                                 \n"," max_pooling2d_2 (MaxPoolin  (None, 24, 24, 128)       0         \n"," g2D)                                                            \n","                                                                 \n"," dropout_2 (Dropout)         (None, 24, 24, 128)       0         \n","                                                                 \n"," conv2d_6 (Conv2D)           (None, 22, 22, 256)       295168    \n","                                                                 \n"," batch_normalization_6 (Bat  (None, 22, 22, 256)       1024      \n"," chNormalization)                                                \n","                                                                 \n"," conv2d_7 (Conv2D)           (None, 20, 20, 256)       590080    \n","                                                                 \n"," batch_normalization_7 (Bat  (None, 20, 20, 256)       1024      \n"," chNormalization)                                                \n","                                                                 \n"," max_pooling2d_3 (MaxPoolin  (None, 10, 10, 256)       0         \n"," g2D)                                                            \n","                                                                 \n"," dropout_3 (Dropout)         (None, 10, 10, 256)       0         \n","                                                                 \n"," flatten (Flatten)           (None, 25600)             0         \n","                                                                 \n"," dense (Dense)               (None, 512)               13107712  \n","                                                                 \n"," batch_normalization_8 (Bat  (None, 512)               2048      \n"," chNormalization)                                                \n","                                                                 \n"," dropout_4 (Dropout)         (None, 512)               0         \n","                                                                 \n"," dense_1 (Dense)             (None, 6)                 3078      \n","                                                                 \n","=================================================================\n","Total params: 14288934 (54.51 MB)\n","Trainable params: 14285990 (54.50 MB)\n","Non-trainable params: 2944 (11.50 KB)\n","_________________________________________________________________\n"]}]},{"cell_type":"code","source":["n_steps = train_data.sa
…
